…
            "2024-05-30 11:04:02.821777: I tensorflow/core/platform/cpu_feature_guard.cc:182] This TensorFlow binary is optimized to use available CPU instructions in performance-critical operations.\n",
            "To enable the following instructions: AVX2 FMA, in other operations, rebuild TensorFlow with the appropriate compiler flags.\n",
            "2024-05-30 11:04:04.252983: W tensorflow/compiler/tf2tensorrt/utils/py_utils.cc:38] TF-TRT Warning: Could not find TensorRT\n",
            "Overriding model.yaml nc=80 with nc=30\n",
            "\n",
            "                   from  n    params  module                                       arguments                     \n",
            "  0                  -1  1       928  ultralytics.nn.modules.Conv                  [3, 32, 3, 2]                 \n",
            "  1                  -1  1     18560  ultralytics.nn.modules.Conv                  [32, 64, 3, 2]                \n",
            "  2                  -1  1     29056  ultralytics.nn.modules.C2f                   [64, 64, 1, True]             \n",
            "  3                  -1  1     73984  ultralytics.nn.modules.Conv                  [64, 128, 3, 2]               \n",
            "  4                  -1  2    197632  ultralytics.nn.modules.C2f                   [128, 128, 2, True]           \n",
            "  5                  -1  1    295424  ultralytics.nn.modules.Conv                  [128, 256, 3, 2]              \n",
            "  6                  -1  2    788480  ultralytics.nn.modules.C2f                   [256, 256, 2, True]           \n",
            "  7                  -1  1   1180672  ultralytics.nn.modules.Conv                  [256, 512, 3, 2]              \n",
            "  8                  -1  1   1838080  ultralytics.nn.modules.C2f                   [512, 512, 1, True]           \n",
            "  9                  -1  1    656896  ultralytics.nn.modules.SPPF                  [512, 512, 5]                 \n",
            " 10                  -1  1         0  torch.nn.modules.upsampling.Upsample         [None, 2, 'nearest']          \n",
            " 11             [-1, 6]  1         0  ultralytics.nn.modules.Concat                [1]                           \n",
            " 12                  -1  1    591360  ultralytics.nn.modules.C2f                   [768, 256, 1]                 \n",
            " 13                  -1  1         0  torch.nn.modules.upsampling.Upsample         [None, 2, 'nearest']          \n",
            " 14             [-1, 4]  1         0  ultralytics.nn.modules.Concat                [1]                           \n",
            " 15                  -1  1    148224  ultralytics.nn.modules.C2f                   [384, 128, 1]                 \n",
            " 16                  -1  1    147712  ultralytics.nn.modules.Conv                  [128, 128, 3, 2]              \n",
            " 17            [-1, 12]  1         0  ultralytics.nn.modules.Concat                [1]                           \n",
            " 18                  -1  1    493056  ultralytics.nn.modules.C2f                   [384, 256, 1]                 \n",
            " 19                  -1  1    590336  ultralytics.nn.modules.Conv                  [256, 256, 3, 2]              \n",
            " 20             [-1, 9]  1         0  ultralytics.nn.modules.Concat                [1]                           \n",
            " 21                  -1  1   1969152  ultralytics.nn.modules.C2f                   [768, 512, 1]                 \n",
            " 22        [15, 18, 21]  1   2127658  ultralytics.nn.modules.Detect                [30, [128, 256, 512]]         \n",
            "Model summary: 225 layers, 11147210 parameters, 11147194 gradients, 28.7 GFLOPs\n",
            "\n",
            "Transferred 349/355 items from pretrained weights\n",
            "WARNING âš ï¸ --img-size [600] must be multiple of max stride 32, updating to [608]\n",
            "\u001b[34m\u001b[1moptimizer:\u001b[0m SGD(lr=0.01) with parameter groups 57 weight(decay=0.0), 64 weight(decay=0.001), 63 bias\n",
…
            "2024-05-30 11:32:46.074668: I tensorflow/core/platform/cpu_feature_guard.cc:182] This TensorFlow binary is optimized to use available CPU instructions in performance-critical operations.\n",
            "To enable the following instructions: AVX2 FMA, in other operations, rebuild TensorFlow with the appropriate compiler flags.\n",
            "2024-05-30 11:32:47.397141: W tensorflow/compiler/tf2tensorrt/utils/py_utils.cc:38] TF-TRT Warning: Could not find TensorRT\n",
            "Overriding model.yaml nc=80 with nc=1\n",
            "\n",
            "                   from  n    params  module                                       arguments                     \n",
            "  0                  -1  1       928  ultralytics.nn.modules.Conv                  [3, 32, 3, 2]                 \n",
            "  1                  -1  1     18560  ultralytics.nn.modules.Conv                  [32, 64, 3, 2]                \n",
            "  2                  -1  1     29056  ultralytics.nn.modules.C2f                   [64, 64, 1, True]             \n",
            "  3                  -1  1     73984  ultralytics.nn.modules.Conv                  [64, 128, 3, 2]               \n",
            "  4                  -1  2    197632  ultralytics.nn.modules.C2f                   [128, 128, 2, True]           \n",
            "  5                  -1  1    295424  ultralytics.nn.modules.Conv                  [128, 256, 3, 2]              \n",
            "  6                  -1  2    788480  ultralytics.nn.modules.C2f                   [256, 256, 2, True]           \n",
            "  7                  -1  1   1180672  ultralytics.nn.modules.Conv                  [256, 512, 3, 2]              \n",
            "  8                  -1  1   1838080  ultralytics.nn.modules.C2f                   [512, 512, 1, True]           \n",
            "  9                  -1  1    656896  ultralytics.nn.modules.SPPF                  [512, 512, 5]                 \n",
            " 10                  -1  1         0  torch.nn.modules.upsampling.Upsample         [None, 2, 'nearest']          \n",
            " 11             [-1, 6]  1         0  ultralytics.nn.modules.Concat                [1]                           \n",
            " 12                  -1  1    591360  ultralytics.nn.modules.C2f                   [768, 256, 1]                 \n",
            " 13                  -1  1         0  torch.nn.modules.upsampling.Upsample         [None, 2, 'nearest']          \n",
            " 14             [-1, 4]  1         0  ultralytics.nn.modules.Concat                [1]                           \n",
            " 15                  -1  1    148224  ultralytics.nn.modules.C2f                   [384, 128, 1]                 \n",
            " 16                  -1  1    147712  ultralytics.nn.modules.Conv                  [128, 128, 3, 2]              \n",
            " 17            [-1, 12]  1         0  ultralytics.nn.modules.Concat                [1]                           \n",
            " 18                  -1  1    493056  ultralytics.nn.modules.C2f                   [384, 256, 1]                 \n",
            " 19                  -1  1    590336  ultralytics.nn.modules.Conv                  [256, 256, 3, 2]              \n",
            " 20             [-1, 9]  1         0  ultralytics.nn.modules.Concat                [1]                           \n",
            " 21                  -1  1   1969152  ultralytics.nn.modules.C2f                   [768, 512, 1]                 \n",
            " 22        [15, 18, 21]  1   2116435  ultralytics.nn.modules.Detect                [1, [128, 256, 512]]          \n",
            "Model summary: 225 layers, 11135987 parameters, 11135971 gradients, 28.6 GFLOPs\n",
            "\n",
            "Transferred 349/355 items from pretrained weights\n",
            "WARNING âš ï¸ --img-size [600] must be multiple of max stride 32, updating to [608]\n",
            "\u001b[34m\u001b[1moptimizer:\u001b[0m SGD(lr=0.01) with parameter groups 57 weight(decay=0.0), 64 weight(decay=0.001), 63 bias\n",
…
            "2024-05-30 12:04:58.331719: I tensorflow/core/platform/cpu_feature_guard.cc:182] This TensorFlow binary is optimized to use available CPU instructions in performance-critical operations.\n",
            "To enable the following instructions: AVX2 FMA, in other operations, rebuild TensorFlow with the appropriate compiler flags.\n",
            "2024-05-30 12:05:00.152846: W tensorflow/compiler/tf2tensorrt/utils/py_utils.cc:38] TF-TRT Warning: Could not find TensorRT\n",
            "Overriding model.yaml nc=80 with nc=2\n",
            "\n",
            "                   from  n    params  module                                       arguments                     \n",
            "  0                  -1  1       928  ultralytics.nn.modules.Conv                  [3, 32, 3, 2]                 \n",
            "  1                  -1  1     18560  ultralytics.nn.modules.Conv                  [32, 64, 3, 2]                \n",
            "  2                  -1  1     29056  ultralytics.nn.modules.C2f                   [64, 64, 1, True]             \n",
            "  3                  -1  1     73984  ultralytics.nn.modules.Conv                  [64, 128, 3, 2]               \n",
            "  4                  -1  2    197632  ultralytics.nn.modules.C2f                   [128, 128, 2, True]           \n",
            "  5                  -1  1    295424  ultralytics.nn.modules.Conv                  [128, 256, 3, 2]              \n",
            "  6                  -1  2    788480  ultralytics.nn.modules.C2f                   [256, 256, 2, True]           \n",
            "  7                  -1  1   1180672  ultralytics.nn.modules.Conv                  [256, 512, 3, 2]              \n",
            "  8                  -1  1   1838080  ultralytics.nn.modules.C2f                   [512, 512, 1, True]           \n",
            "  9                  -1  1    656896  ultralytics.nn.modules.SPPF                  [512, 512, 5]                 \n",
            " 10                  -1  1         0  torch.nn.modules.upsampling.Upsample         [None, 2, 'nearest']          \n",
            " 11             [-1, 6]  1         0  ultralytics.nn.modules.Concat                [1]                           \n",
            " 12                  -1  1    591360  ultralytics.nn.modules.C2f                   [768, 256, 1]                 \n",
            " 13                  -1  1         0  torch.nn.modules.upsampling.Upsample         [None, 2, 'nearest']          \n",
            " 14             [-1, 4]  1         0  ultralytics.nn.modules.Concat                [1]                           \n",
            " 15                  -1  1    148224  ultralytics.nn.modules.C2f                   [384, 128, 1]                 \n",
            " 16                  -1  1    147712  ultralytics.nn.modules.Conv                  [128, 128, 3, 2]              \n",
            " 17            [-1, 12]  1         0  ultralytics.nn.modules.Concat                [1]                           \n",
            " 18                  -1  1    493056  ultralytics.nn.modules.C2f                   [384, 256, 1]                 \n",
            " 19                  -1  1    590336  ultralytics.nn.modules.Conv                  [256, 256, 3, 2]              \n",
            " 20             [-1, 9]  1         0  ultralytics.nn.modules.Concat                [1]                           \n",
            " 21                  -1  1   1969152  ultralytics.nn.modules.C2f                   [768, 512, 1]                 \n",
            " 22        [15, 18, 21]  1   2116822  ultralytics.nn.modules.Detect                [2, [128, 256, 512]]          \n",
            "Model summary: 225 layers, 11136374 parameters, 11136358 gradients, 28.6 GFLOPs\n",
            "\n",
            "Transferred 349/355 items from pretrained weights\n",
            "WARNING âš ï¸ --img-size [600] must be multiple of max stride 32, updating to [608]\n",
            "\u001b[34m\u001b[1moptimizer:\u001b[0m SGD(lr=0.01) with parameter groups 57 weight(decay=0.0), 64 weight(decay=0.001), 63 bias\n",
…
            "2024-05-30 12:11:21.492113: I tensorflow/core/platform/cpu_feature_guard.cc:182] This TensorFlow binary is optimized to use available CPU instructions in performance-critical operations.\n",
            "To enable the following instructions: AVX2 FMA, in other operations, rebuild TensorFlow with the appropriate compiler flags.\n",
            "2024-05-30 12:11:22.881715: W tensorflow/compiler/tf2tensorrt/utils/py_utils.cc:38] TF-TRT Warning: Could not find TensorRT\n",
            "Overriding model.yaml nc=80 with nc=15\n",
            "\n",
            "                   from  n    params  module                                       arguments                     \n",
            "  0                  -1  1       928  ultralytics.nn.modules.Conv                  [3, 32, 3, 2]                 \n",
            "  1                  -1  1     18560  ultralytics.nn.modules.Conv                  [32, 64, 3, 2]                \n",
            "  2                  -1  1     29056  ultralytics.nn.modules.C2f                   [64, 64, 1, True]             \n",
            "  3                  -1  1     73984  ultralytics.nn.modules.Conv                  [64, 128, 3, 2]               \n",
            "  4                  -1  2    197632  ultralytics.nn.modules.C2f                   [128, 128, 2, True]           \n",
            "  5                  -1  1    295424  ultralytics.nn.modules.Conv                  [128, 256, 3, 2]              \n",
            "  6                  -1  2    788480  ultralytics.nn.modules.C2f                   [256, 256, 2, True]           \n",
            "  7                  -1  1   1180672  ultralytics.nn.modules.Conv                  [256, 512, 3, 2]              \n",
            "  8                  -1  1   1838080  ultralytics.nn.modules.C2f                   [512, 512, 1, True]           \n",
            "  9                  -1  1    656896  ultralytics.nn.modules.SPPF                  [512, 512, 5]                 \n",
            " 10                  -1  1         0  torch.nn.modules.upsampling.Upsample         [None, 2, 'nearest']          \n",
            " 11             [-1, 6]  1         0  ultralytics.nn.modules.Concat                [1]                           \n",
            " 12                  -1  1    591360  ultralytics.nn.modules.C2f                   [768, 256, 1]                 \n",
            " 13                  -1  1         0  torch.nn.modules.upsampling.Upsample         [None, 2, 'nearest']          \n",
            " 14             [-1, 4]  1         0  ultralytics.nn.modules.Concat                [1]                           \n",
            " 15                  -1  1    148224  ultralytics.nn.modules.C2f                   [384, 128, 1]                 \n",
            " 16                  -1  1    147712  ultralytics.nn.modules.Conv                  [128, 128, 3, 2]              \n",
            " 17            [-1, 12]  1         0  ultralytics.nn.modules.Concat                [1]                           \n",
            " 18                  -1  1    493056  ultralytics.nn.modules.C2f                   [384, 256, 1]                 \n",
            " 19                  -1  1    590336  ultralytics.nn.modules.Conv                  [256, 256, 3, 2]              \n",
            " 20             [-1, 9]  1         0  ultralytics.nn.modules.Concat                [1]                           \n",
            " 21                  -1  1   1969152  ultralytics.nn.modules.C2f                   [768, 512, 1]                 \n",
            " 22        [15, 18, 21]  1   2121853  ultralytics.nn.modules.Detect                [15, [128, 256, 512]]         \n",
            "Model summary: 225 layers, 11141405 parameters, 11141389 gradients, 28.7 GFLOPs\n",
            "\n",
            "Transferred 349/355 items from pretrained weights\n",
            "WARNING âš ï¸ --img-size [600] must be multiple of max stride 32, updating to [608]\n",
            "\u001b[34m\u001b[1moptimizer:\u001b[0m SGD(lr=0.01) with parameter groups 57 weight(decay=0.0), 64 weight(decay=0.001), 63 bias\n",
…
